checkpoint.pth (torch_old, 10549 bytes, 6 tensors)

fc1.weight f4 [32, 37]
000000 e0 25 94 bd b9 05 10 bc 4c b1 5d bd 1d a9 ab bd
       -0.072337866 -0.008790427 -0.05412416 -0.08381865
000010 29 21 5b be b0 8b 9b bd 45 d0 4a 3d dd 81 6d 3d
       -0.21399368 -0.07595003 0.049515028 0.057985175
000020 57 48 34 3e 27 1c 63 3d 66 b5 8e bc 9b f2 5b be
       0.1760572 0.05544677 -0.017420482 -0.21479265
000030 64 60 97 bd cc 67 c7 bc ba a9 ff 3d db 1d ab 3d
       -0.07391432 -0.024341486 0.12483545 0.08355304
000040 32 8a b8 3b 36 05 9f bc ab 74 12 bd bb 9a 54 3e
       0.0056317085 -0.019411664 -0.035755794 0.2076215
000050 3d 59 de 3d 2a 96 93 bd 24 aa 1b bd e4 a1 eb 3d
       0.108568646 -0.07206376 -0.038004056 0.115054876
000060 e7 5c 57 3e 25 01 a3 3d 70 08 98 3c 21 85 fb bd
       0.21031533 0.07959203 0.01855871 -0.12281252
000070 dd 6e 07 be 88 7b 1a 3e d2 a8 79 bb 74 e6 41 bd
       -0.13225885 0.15086186 -0.003809501 -0.047338918
000080 af 37 9f bd db 8c 33 be 3e 8c 37 3e 86 db e6 3c
       -0.07774293 -0.17534201 0.17924592 0.028180849
000090 51 23 e4 bc d0 24 86 3e ee 76 27 3d 1c 50 da 3d
       -0.027848871 0.2619996 0.040884905 0.10659811
0000a0 4c 4b aa bd 95 7a 8e be 7c 4c 66 bc 02 76 d0 bd
       -0.08315143 -0.27827898 -0.014056321 -0.10178758
0000b0 ec 7a 3f bd 6a ab c8 bd e5 27 db bd 20 88 87 3d
       -0.046748087 -0.0979832 -0.10700969 0.06617761
0000c0 31 df cf 3d 7d 0f 93 3d 9b 39 f1 3b 69 48 47 be
       0.10149992 0.071806885 0.0073616034 -0.19461216
0000d0 f0 e7 f2 3d 82 1c d5 3d 79 6f 57 3d b9 b5 0c 3e
       0.11860645 0.10405828 0.052596543 0.13741197
0000e0 33 0f 06 3e 78 02 7b bd 68 c1 bb bd b1 dd 84 bd
       0.13091736 -0.06128165 -0.09167749 -0.06487597
0000f0 8c 78 ee 3d 1a 06 75 3e a9 0d 8e 3d e5 ed b8 3c
       0.11644086 0.23928109 0.06936199 0.022574374
000100 93 b1 c4 3c a3 a2 4f bd 4e 30 27 3d 1c ee a3 3d
       0.024010455 -0.05069221 0.04081755 0.080044
000110 5a 23 11 3e 3d 0e 0e 3e 04 3f 30 3d a4 b0 7f bc
       0.14173642 0.13872619 0.043028846 -0.015606079
000120 94 1b 06 bd e4 6e a5 3d ed 76 a2 3d 3d 2c b4 3d
       -0.032741144 0.08077791 0.079328395 0.087975
000130 37 2a 6c 3d 19 18 d1 3d 09 da e9 3c 8a fa 59 bb
       0.057657447 0.102096744 0.02854635 -0.0033260905
000140 88 29 ef ba 3c e2 6d 3c 20 2e b3 3c 45 b8 62 bd
       -0.001824663 0.0145192705 0.02187258 -0.055351514
000150 b0 ed 9c 3e 86 43 65 be 1c 58 91 be e7 48 a1 be
       0.3065009 -0.2238904 -0.28387535 -0.31500933
000160 9b 96 c3 bf 37 7d 16 3b 15 47 a8 3d 3a b4 2e 3d
       -1.5280336 0.0022962817 0.08216683 0.042652346
000170 04 70 9f 3d 63 68 a4 bc fb 40 66 bd 09 13 6e 3c
       0.07785037 -0.020069307 -0.056214314 0.0145309055
000180 b5 e7 b2 ba 00 43 d7 3d 21 e5 cb 3d 4c f7 23 bc
       -0.0013649376 0.10510826 0.09955812 -0.010007691
000190 9f 13 27 3d 38 13 be 3d af 1a da 3d 5f 0d c1 3d
       0.040790197 0.092810094 0.10649621 0.094263785
0001a0 d7 d8 ad bd d5 63 27 bd 2f fb b3 bd fb a9 73 bd
       -0.084886245 -0.04086669 -0.08788144 -0.059488278
0001b0 4f 86 03 3c c5 b1 33 3b a4 68 53 3b 6a 45 cc be
       0.008027627 0.0027419191 0.0032258416 -0.3989671
0001c0 ef 0d b0 be 1d 5f 90 3e ef 38 c8 be 5e c8 10 c0
       -0.3438563 0.28197566 -0.39105937 -2.2622294
0001d0 ea 5e a5 be 58 90 9b be 3e 3a d7 3d a7 b7 19 be
       -0.32298976 -0.30383563 0.10509156 -0.15011464
0001e0 96 f7 d0 be 33 c9 12 3d af c2 35 be d3 0d ee bd
       -0.40813893 0.03583641 -0.17750047 -0.116237305
0001f0 48 02 b0 be df 29 64 bd 37 41 df 3a 7f 62 c8 be
       -0.3437674 -0.055703994 0.0017032985 -0.39137647
000200 7e 3c 84 bc 1c e7 1a bf 1a 89 3a bf 75 ca a0 bd
       -0.016142126 -0.60508895 -0.7286545 -0.078511156
000210 ae 3d 05 be 13 fa aa bd c3 f2 b7 3c e9 9c 0f 3e
       -0.1301181 -0.08348479 0.022454625 0.140247
000220 38 40 49 be 88 85 3d be 9a 44 20 3e eb db 9f be
       -0.19653404 -0.1850797 0.1565117 -0.31222472
000230 0a d5 02 bf 6d fb 62 bb 63 b2 9e 3e 48 18 3f be
       -0.5110632 -0.0034634725 0.30995473 -0.18661606
000240 d3 d3 1a be 82 c0 d0 be 41 89 32 3e 99 58 3f 3c
       -0.15119867 -0.40771872 0.1743517 0.011678838
000250 1d 79 d6 bd 93 75 47 bd 1a 00 00 be e0 c8 28 be
       -0.10472319 -0.048696112 -0.12500039 -0.16482878
000260 ed fe a0 be 0a 65 98 be 08 6e 06 bf aa 0f b4 3e
       -0.31444493 -0.29764587 -0.52511644 0.351682
000270 a5 3f f6 be 68 a5 12 c0 bf 1d 97 bd 6c 21 7a 3d
       -0.48095432 -2.2913456 -0.073787205 0.06106703
000280 db df 42 bd 08 2e 2d be 09 c1 ad be 77 fd 91 bd
       -0.047576766 -0.16912091 -0.33936337 -0.07128423
000290 1a 48 b1 bd ff 7c 4a 3c a0 4c 81 be 7d af 88 be
       -0.086563304 0.012358903 -0.25253773 -0.26696387
0002a0 f1 e0 a5 bd 35 84 74 3d 9b d4 f3 3d b7 1c a7 be
       -0.08099545 0.059696395 0.11905786 -0.32639095
0002b0 82 ee 16 bf 85 86 a7 3c c2 2e 12 bd 31 be 93 3e
       -0.58957684 0.020449886 -0.035689123 0.28856042
0002c0 b6 62 82 be 46 04 cd bf f6 7d 62 3d 2e da 95 bd
       -0.25465935 -1.6016929 0.055295907 -0.07317005
0002d0 b4 42 92 3d ba 95 18 be b6 4f c5 be 38 a6 80 3a
       0.07141629 -0.14900866 -0.38537377 0.0009815162
0002e0 79 11 53 3d 1c 3b b2 bc 41 bd 75 bd 26 59 30 bc
       0.051530335 -0.021756701 -0.05999494 -0.010763442
0002f0 8d 46 23 3e a3 6e 59 3e 9c 58 7b 3e 7b 16 1e 3e
       0.15944882 0.21233611 0.2454552 0.15438263
000300 35 ad ee ba aa 39 b0 be 13 4a ae bf 4f 69 21 bd
       -0.0018209579 -0.34418994 -1.3616356 -0.03940707
000310 d6 5f 52 bc fa 35 60 3d bc 47 5f bc 18 53 42 3c
       -0.012840232 0.054738976 -0.013627943 0.011860631
000320 9f 4b 7b 3c 23 dc ad 3d d8 a1 c2 3d 2e bc c2 bd
       0.015337854 0.08489253 0.095035255 -0.09508549
000330 95 1e 10 be f7 a1 02 3d 25 90 31 3e 35 b2 1e 3e
       -0.14074166 0.031892743 0.17340143 0.15497668
000340 32 1f a9 3d e0 40 9f bc 4e a8 f8 3d d3 83 9d 3d
       0.08257903 -0.019440114 0.121414766 0.07691159
000350 1a d1 6e 3d 02 7f 99 bd 7a e5 ad bc 4c 68 d3 3d
       0.058304884 -0.07494928 -0.021227587 0.103226274
000360 38 39 46 3d ca cf 48 3c 6b 28 75 be 05 53 be bf
       0.04839441 0.012256572 -0.239412 -1.4869086
000370 e3 65 47 bd 4e e6 40 3b dd 25 c0 bd 81 d1 44 3e
       -0.04868115 0.0029434147 -0.09382222 0.19220544
000380 f4 ab e9 bd 3f 5b 6a 3d a2 96 6f be 5d b3 20 be
       -0.114097506 0.057215925 -0.23397306 -0.15693422
000390 ea 01 72 bd b7 85 bb bc 36 bf 0b 3e 34 1b 92 3d
       -0.059083857 -0.022890909 0.1364716 0.07134095
0003a0 b0 78 ee 3c 0e 36 ca 3c 8d 72 d2 3d 21 92 ec 3c
       0.029110283 0.024683978 0.10275755 0.028878273
0003b0 c5 2c 23 bd f6 c4 08 be 02 49 e9 3b b2 69 c8 3d
       -0.039837617 -0.13356385 0.007119299 0.09785785
0003c0 6f 14 12 bc 24 f0 2e 3e e6 a4 1e be ea de 1e be
       -0.008916005 0.17083794 -0.15492591 -0.15514722
0003d0 98 d5 c3 3d 09 d1 24 3e ee 5c f5 3d 08 11 69 be
       0.09562224 0.16095366 0.119806156 -0.22760403
0003e0 03 06 3b 3e e5 1c f1 bd d0 ca 13 be 62 58 79 3d
       0.18264012 -0.11773089 -0.14432836 0.060875304
0003f0 39 bb c7 bd 70 b4 86 bc 8f 24 bd bc a7 0d 87 bb
       -0.09752507 -0.016443461 -0.023088722 -0.0041215005

fc1.bias f4 [32]
000000 81 0a 15 be c8 b7 af bd 04 e8 02 bd 11 3f b1 3d
       -0.14554788 -0.08579975 -0.03195955 0.08654607
000010 d7 7c 49 3e 00 1d 1b bc 0b 33 45 bd a9 ef 88 3e
       0.19676529 -0.009467363 -0.04814438 0.26745346
000020 d0 54 07 3e 2b 27 40 3e 16 ca bc bc 0a 7b b1 3c
       0.13215947 0.18764941 -0.02304558 0.021665115
000030 81 04 a7 3d 4a 0d 10 be 9d 34 20 3e 22 7d 36 bd
       0.08155156 -0.1406757 0.1564507 -0.04455293
000040 3b f7 18 3e 91 71 f6 3d de 1a 1e 3e a3 3b f8 bd
       0.14938061 0.1203338 0.15439937 -0.1212075
000050 eb 83 0d be 7b ec d6 bd 86 15 85 bd 32 34 01 3e
       -0.13819854 -0.10494324 -0.06498246 0.12617567
000060 ca 57 e3 3d f0 2f 38 3d 52 5f 83 bd 2a d2 c3 3c
       0.11100729 0.04496759 -0.06414665 0.023903925
000070 c0 45 5b 3e 13 3f 17 be eb 93 1f bd b0 f7 0c be
       0.21413326 -0.14770155 -0.038959425 -0.1376636

fc2.weight f4 [32, 32]
000000 41 45 e8 bd fb bf c1 3d ac 1e 61 be ae 28 ee 3e
       -0.11341334 0.094604455 -0.21984357 0.4651541
000010 c1 d6 01 3f 6a 5d ab 3e cd 99 64 3e 87 fe d0 bd
       0.50718313 0.33469707 0.22324295 -0.10204797
000020 e0 5a a3 3d eb f0 08 3d 50 1a 83 be 36 9e 97 3e
       0.079763174 0.033432882 -0.25606012 0.29612893
000030 e8 88 45 be 5e b8 8f be 6c 5f 66 3b 62 cb 2d be
       -0.19290507 -0.28070349 0.003515209 -0.16972116
000040 3c 8d 3f be fe 3b d7 3d c9 45 34 be 7b 0b 46 be
       -0.1870622 0.105094895 -0.17604746 -0.19340317
000050 58 7c 7e 3e bc b8 06 be 38 de 34 3e c2 c3 88 be
       0.24852121 -0.13156408 0.17662895 -0.2671185
000060 df 43 28 be 92 b7 03 3e 65 5a af bd 5c c9 01 be
       -0.16432141 0.12862995 -0.08562163 -0.12674469
000070 b8 ba 15 be 10 ef 1a bd 8e 7a 89 bc 53 29 b8 3d
       -0.14622009 -0.037825644 -0.016782071 0.08992257
000080 62 41 92 3c 63 8f a1 3c 19 a0 9f 3e 4c 3c 87 3c
       0.017853443 0.019721692 0.31176832 0.016508244
000090 df 55 0c bd be 5c 00 be 31 8a d9 3c 6b 02 ad 3d
       -0.03426158 -0.12535378 0.026555153 0.08447727
0000a0 00 bc 1d 3e 62 f9 58 3c 77 31 f5 3c ef 3e 26 3d
       0.15403748 0.013243051 0.029930813 0.040587362
0000b0 f5 2d c5 bd b8 ed 80 be 9d 91 fb 3c b4 9e ca bb
       -0.09627906 -0.25181365 0.030709082 -0.0061834697
0000c0 70 1a 01 3e 6c 05 99 3e 72 85 73 3d 82 3e 20 3e
       0.12607741 0.2988695 0.059453435 0.15648845
0000d0 15 03 2e 3e 95 cb e9 3d 87 7f 0e 3e 53 b8 8c be
       0.16993363 0.11415783 0.13915835 -0.27484378
0000e0 fa 85 24 bf 51 85 0c 3e 57 b4 c6 be ed 75 9f 3e
       -0.6426693 0.13722731 -0.38809463 0.31144658
0000f0 c3 88 71 3e f8 f0 83 bc 2d ba b9 3d 45 99 2f 3e
       0.23587327 -0.016106114 0.09068713 0.17148311
000100 b0 21 7e 39 05 23 08 bf dc 62 36 bd be 24 3d 3d
       0.00024235877 -0.53178436 -0.044527873 0.04617762
000110 f9 7f cb bc 3b 5d 05 be a9 9d a1 bc 2b 83 95 3e
       -0.024841296 -0.13023846 -0.019728499 0.29201636
000120 e2 60 00 bf b1 56 f6 be d4 86 87 3d cf 08 51 be
       -0.5014783 -0.48113015 0.06617513 -0.20413516
000130 17 92 43 3d f8 73 5c be 5b 31 90 be 2e ad b7 be
       0.047746744 -0.21528614 -0.28162655 -0.35874313
000140 2b 8f 7d 3d 60 08 09 bd 7c 2c 4b 3e 48 54 f1 be
       0.061904114 -0.033455253 0.19841188 -0.47134614
000150 9d ce 8a 3c 80 7d 28 bd 6e 4a 46 3e 47 22 8c 3d
       0.016944224 -0.04113531 0.1936433 0.068424754
000160 df 21 e8 bd 22 3d 30 3e df a0 08 be 54 7c 0e bd
       -0.113345854 0.1721082 -0.13342617 -0.034786537
000170 b6 6f 80 bb 0c 09 eb 3e e0 9f 2a 3e 49 50 3a 3c
       -0.003919567 0.4590534 0.1666255 0.011371681
000180 c0 63 b3 be ea 05 a5 be 8e 5b cc 3d fb 26 6d bd
       -0.3503704 -0.32231075 0.099784 -0.057898503
000190 9f 11 8d be 0a 16 52 be 7f bb 5a 3e 01 65 ea 3d
       -0.27552506 -0.2051622 0.21360587 0.11445046
0001a0 fb 2a 1a be 4f a1 86 3d 20 76 c8 be d9 63 8e bd
       -0.15055458 0.06573736 -0.39152622 -0.06952638
0001b0 a7 33 07 bf e2 a6 96 3e 36 78 22 be bc f0 0d 3d
       -0.5281319 0.29424196 -0.1586617 0.03465341
0001c0 85 57 2b be 6d de f3 be fd 51 ed 3d 43 00 47 be
       -0.16732605 -0.47630635 0.11587904 -0.19433694
0001d0 57 ff 43 be cb 15 47 3e 7a bd cf be 2c 3b a9 3d
       -0.19140373 0.19441907 -0.40574247 0.08263239
0001e0 8b e8 8d 3e 8c 3d 46 be 66 15 cb be 93 05 05 3c
       0.2771648 -0.19359416 -0.39664763 0.008119005
0001f0 88 65 9d be 7f c7 7f 3b a8 94 d2 bd 70 00 2b 3e
       -0.30741525 0.003902882 -0.1028226 0.16699386
000200 16 93 21 bd 67 69 e2 bd 31 70 8d 3e 30 0a 4b be
       -0.039446913 -0.1105526 0.27624658 -0.19828105
000210 19 6d 31 3e 2e d0 31 3e 7d 8b 8e bc f3 a8 5f 3e
       0.17326774 0.1736457 -0.017400498 0.21841793
000220 b9 ae 1e 3e 60 84 33 3e da ba f8 bc 8e ae 9d 3d
       0.15496339 0.17530966 -0.030362535 0.07699309
000230 90 d5 dd bc c5 49 57 be 78 65 16 3e ee 6b 94 3d
       -0.027079374 -0.21024235 0.14687145 0.072471485
000240 ce 86 8b 3d 74 59 49 3e 92 43 49 3d 37 8e ab 3e
       0.06812821 0.1966303 0.049136706 0.3350694
000250 b3 bc 4b 3d 91 3d 19 3e d4 ab 6d 3d b6 49 9f 3e
       0.049740504 0.14964892 0.058025196 0.31110924
000260 7f 89 d8 bd fd 2b 6f 3e a9 ef a1 3e bf 92 bc 3e
       -0.105731 0.23356624 0.3162816 0.36830708
000270 1a ea a7 bd f3 ec db 3c 8c db 06 3e 2e 47 4a 3d
       -0.08198948 0.026846385 0.13169688 0.04938429
000280 ca 82 ff 3d 00 98 66 3d 92 17 da be 9b c6 54 3e
       0.12476118 0.056297302 -0.42596108 0.20778887
000290 c8 22 16 3f ce f2 24 3d ff 96 f1 3d 98 4f 7c bd
       0.5864682 0.04027062 0.11796378 -0.061599344
0002a0 1d 4f ce 3c 0f ac 2a 3e 5a 1b cb bc 75 e9 c6 be
       0.025184209 0.16667198 -0.024793316 -0.3884999
0002b0 27 1d 01 3d d0 66 27 3e c9 ca 4b 3d 6e 95 1a 3d
       0.031521942 0.16347814 0.049753938 0.037740164
0002c0 26 41 ae 3d e8 9a 8e be a5 f7 0e 3e a1 0d 45 bf
       0.0850852 -0.2785256 0.13961656 -0.7697392
0002d0 c4 26 00 3e a9 6f 85 3d c8 df cb bd 4c 54 0c bf
       0.12514788 0.06515438 -0.09954792 -0.54816127
0002e0 aa 4f 22 bf cf 35 23 bf 3e 34 81 bf 1e cc 3e bf
       -0.6340281 -0.6375398 -1.0094068 -0.7453021
0002f0 0a cc db 3c 97 29 91 3e 68 0e 95 be f0 d0 86 3c
       0.026830692 0.28352043 -0.29112554 0.016457051
000300 11 60 c4 bd 2e 43 87 be 48 79 72 3e 99 4f 85 3e
       -0.09588636 -0.26418442 0.23679078 0.2603729
000310 eb 06 b7 3e 70 0c 74 3d cd 2d 79 3e 4e 8b 67 3e
       0.35747465 0.059582174 0.24333878 0.22611734
000320 3b ee 49 3e 14 56 82 be 11 74 66 be e2 3e 1b 3e
       0.19719784 -0.25456297 -0.22505213 0.15160707
000330 02 2f 80 ba e6 af 5d 3e a3 a6 7a be 86 f3 30 be
       -0.0009779634 0.21649131 -0.2447763 -0.17280397
000340 49 b1 b4 be 12 6d 99 bd 88 57 85 3e 2a 7a 40 bd
       -0.35291508 -0.07491507 0.26043344 -0.046991505
000350 59 56 ad bd 66 b4 f3 be 19 2a 58 3d 27 1d 51 3d
       -0.08463735 -0.4759857 0.052774522 0.051053192
000360 d0 6a 8f bc 70 11 a4 3e 2e 52 39 bd 41 a3 ce bc
       -0.017506987 0.32044554 -0.04524439 -0.02522433
000370 2c 15 6b bd 0d 05 73 be c5 01 a4 be 80 78 3c 3e
       -0.057393238 -0.23732395 -0.320326 0.18405342
000380 de be 8b bb e5 5e 12 3d 5d c4 78 3e b4 1d 78 be
       -0.0042646965 0.03573503 0.24293657 -0.24230081
000390 ce b2 8a bd a4 66 be 3c b9 15 59 3b b9 3c 31 3e
       -0.067723855 0.023242302 0.003312452 0.1730832
0003a0 79 53 e5 3d 43 80 24 bd f3 a1 42 3e ab 12 3a 3e
       0.11197562 -0.040161382 0.19007091 0.18171184
0003b0 f5 3a 08 3e 94 13 ad bd 8d fc 46 3e 08 33 05 be
       0.1330374 -0.08451 0.19432278 -0.13007748
0003c0 4c 7a 67 3d d7 cc fb 3c 1c ba 17 3e fc 86 ad 3e
       0.056513116 0.030737324 0.14817089 0.33892047
0003d0 37 08 7a b9 96 55 1d 3e 27 61 ed 3c 03 05 ff 3d
       -0.00023844918 0.1536468 0.02897699 0.12452128
0003e0 f8 9e 74 3e 15 a0 80 3d ab 5c cf 3e 12 34 80 3e
       0.23888767 0.06280533 0.40500388 0.25039726
0003f0 10 bb 94 3e 85 40 3e be 09 59 61 3d ec 0b bd 3d
       0.29048967 -0.185793 0.05501655 0.092307895

fc2.bias f4 [32]
000000 d0 71 51 bc e9 25 1b bd 3d 27 a4 bd 56 72 7d bd
       -0.012783483 -0.03787795 -0.080152966 -0.061876617
000010 81 2c 2d 3e a3 d5 b3 3d e7 ab 99 3c 2f 34 a1 3e
       0.16911508 0.08780982 0.018758727 0.31485125
000020 db ec a6 3d da 83 13 bd 53 19 58 3e 91 5c 46 3e
       0.08150645 -0.036014415 0.2110341 0.19371249
000030 22 a2 e0 3e 5a 7c 2f 3e e9 b9 f0 bd 79 82 43 3e
       0.43873698 0.1713728 -0.117542095 0.1909274
000040 36 23 2b 3d 26 42 20 bd b1 fe a0 3d 49 70 28 3e
       0.041781627 -0.039125584 0.078610785 0.16449083
000050 3f 5c 1b 3d e6 5b 24 3c 2e 0d d1 3e 93 e5 96 3d
       0.03792977 0.010031676 0.40830368 0.073680066
000060 ee 47 7f 3c a6 b7 ad bc aa d1 8c 3e 64 22 9d 3d
       0.015581114 -0.021205734 0.2750371 0.07672575
000070 ca 49 9b bc a5 9c e5 bd d0 64 bd 3d a8 cb bb 3d
       -0.018956084 -0.11211518 0.09247744 0.09169704

output.weight f4 [4, 32]
000000 9a f4 57 be 48 60 01 3e 9e 3f 89 3c 3d dc 03 3e
       -0.21089402 0.12634385 0.016753968 0.12876983
000010 e2 4c c0 3d 4c 89 0f bf 85 a7 2b 3e 22 f6 47 3e
       0.09389664 -0.56068873 0.16763122 0.19527486
000020 4f a0 28 3e 9c 84 4d 3e 78 66 26 3e 6e c1 8e 3e
       0.16467403 0.20070118 0.16250026 0.2788195
000030 6c 9d 3a 3e 35 14 a6 3e b5 f3 4c be 01 7b 7f 3e
       0.18224114 0.32437292 -0.20014842 0.24949266
000040 ad cf 57 be 90 c1 8c be d5 78 60 3e 63 36 d8 3c
       -0.21075316 -0.27491426 0.21921094 0.026393121
000050 f8 9e 0f 3f 8f 60 9b 3e 08 86 33 3e c1 bf 81 3e
       0.5610194 0.30347106 0.17531598 0.2534161
000060 b9 92 36 be 64 6c 85 3d a8 20 72 3e 7c eb a0 be
       -0.17829408 0.065148145 0.2364527 -0.3142966
000070 81 68 28 3e 69 44 ca be 8d ad 67 bd 2a 27 be 3d
       0.16446115 -0.39505318 -0.056561995 0.09284814
000080 12 98 dd be c3 39 3c bc da 94 c7 be ee 10 8d be
       -0.43280083 -0.011488381 -0.38980752 -0.2755198
000090 11 c9 7f 3e 0a 9e 55 be dd 32 2e 3e 71 14 82 3e
       0.24979044 -0.20861068 0.1701159 0.2540622
0000a0 74 e9 a2 bd 7c 31 8a 3e 9a 40 85 3e 98 7c 94 3e
       -0.07954684 0.2699088 0.2602585 0.29001307
0000b0 64 d0 67 3e ca 7c 33 3f 78 16 92 be 04 7a 7c 3e
       0.22638088 0.7011229 -0.28532767 0.2465592
0000c0 3f 1e a0 be 42 5d 2e be 96 5a b5 3e b9 d5 56 3e
       -0.31273076 -0.17027763 0.35420674 0.20979966
0000d0 a4 f7 33 3f 29 16 97 3e dc b9 1c 3e 30 8e d6 3e
       0.70299745 0.29509094 0.15305275 0.41905355
0000e0 e9 48 95 be f2 e2 1e 3e 0f a0 3c 3e 28 1b ea 3d
       -0.2915719 0.1551626 0.18420433 0.11430961
0000f0 29 2f e5 3d 13 23 cc be 9b bc 59 3c 65 aa 0e 3e
       0.11190636 -0.3987051 0.013289596 0.13932188
000100 28 03 12 bf 91 19 8f 3e 5b e5 41 be 4e cf a7 bc
       -0.57036066 0.27949193 -0.18935148 -0.020484593
000110 3f 21 93 3c e0 83 50 be f1 a3 d7 be e2 9d 53 3e
       0.017960189 -0.20362806 -0.42117265 0.20665696
000120 9e 50 e1 3c 51 5e f6 3e d8 b2 a1 3e 5d d8 66 3e
       0.027504262 0.48118833 0.3158176 0.22543474
000130 05 27 83 3e dd 03 75 be 86 86 5e be 14 2c ed 3e
       0.25615707 -0.23927255 -0.21731004 0.4632269
000140 ca b3 e7 3d 0e 79 af be 0d f7 19 3e c7 4b 8f 3e
       0.11313589 -0.34272045 0.15035649 0.279875
000150 47 dd 84 3e 16 c1 91 3e b9 3c 27 3e 28 d7 3c 3f
       0.2595007 0.28467625 0.16331758 0.737658
000160 08 b1 5d bc d7 9a b3 3c 83 46 5d 3e 35 77 cd 3d
       -0.013530977 0.02192442 0.2160893 0.100325026
000170 59 9c 2e 3e 9e 51 ca be b9 78 56 bd 1c 04 66 3d
       0.1705183 -0.39515394 -0.052361224 0.056156263
000180 95 14 95 bd 59 fc 26 3d f6 28 bb be 4f b0 98 3e
       -0.07279316 0.040768 -0.36554688 0.29822013
000190 fa 09 41 3e 97 8c 3f be d3 fc b7 be fc ce 67 3e
       0.18851462 -0.18705975 -0.35935077 0.22637552
0001a0 f6 f2 11 3e 30 f0 80 3e 9e bb a1 3e d2 4e 02 3f
       0.14252838 0.2518325 0.31588453 0.5090152
0001b0 cf 0b 93 3e fb 66 4d 3f 8b ec f6 be db e1 cd 3d
       0.28719947 0.8023526 -0.48227343 0.10052844
0001c0 77 71 74 3e ac 5b a1 be 39 d8 ed 3d 5c a4 b0 be
       0.23871408 -0.31515253 0.11613507 -0.34500396
0001d0 89 0e 62 3e ec c3 8b 3e 8a 29 0a 3e be 61 7c 3d
       0.22075857 0.27297914 0.13492408 0.06161665
0001e0 92 2b 32 be 07 27 d7 3d 10 b0 5f 3d 3e 1d c3 be
       -0.17399433 0.10505491 0.054611266 -0.38108248
0001f0 52 ab 08 3f f5 9e c2 be 6a 59 68 bd 1d 58 87 be
       0.53386414 -0.380119 -0.056725897 -0.26434413

output.bias f4 [4]
000000 a6 3e b6 3e 26 7a 2f 3e d0 9b 64 3d 2b 6b 8f 3e
       0.35594672 0.1713644 0.055812657 0.2801145
